2024-05-02 17:38:18,054 - train - INFO - EgoVLP_lora(
  (text_model): RobertaModel(
    (embeddings): RobertaEmbeddings(
      (word_embeddings): Embedding(50265, 768, padding_idx=1)
      (position_embeddings): Embedding(514, 768, padding_idx=1)
      (token_type_embeddings): Embedding(1, 768)
      (LayerNorm): LayerNorm((768,), eps=1e-05, elementwise_affine=True)
      (dropout): Dropout(p=0.1, inplace=False)
    )
    (encoder): RobertaEncoder(
      (layer): ModuleList(
        (0-5): 6 x RobertaLayer(
          (attention): RobertaAttention(
            (self): RobertaSelfAttention(
              (query): Linear(in_features=768, out_features=768, bias=True)
              (key): Linear(in_features=768, out_features=768, bias=True)
              (value): Linear(in_features=768, out_features=768, bias=True)
              (dropout): Dropout(p=0.1, inplace=False)
            )
            (output): RobertaSelfOutput(
              (dense): Linear(in_features=768, out_features=768, bias=True)
              (LayerNorm): LayerNorm((768,), eps=1e-05, elementwise_affine=True)
              (dropout): Dropout(p=0.1, inplace=False)
            )
          )
          (intermediate): RobertaIntermediate(
            (dense): Linear(in_features=768, out_features=3072, bias=True)
            (intermediate_act_fn): GELUActivation()
          )
          (output): RobertaOutput(
            (dense): Linear(in_features=3072, out_features=768, bias=True)
            (LayerNorm): LayerNorm((768,), eps=1e-05, elementwise_affine=True)
            (dropout): Dropout(p=0.1, inplace=False)
          )
        )
        (6-11): 6 x RobertaLayer(
          (attention): RobertaAttention(
            (self): RobertaSelfAttention(
              (query): Linear(in_features=768, out_features=768, bias=True)
              (key): Linear(in_features=768, out_features=768, bias=True)
              (value): Linear(in_features=768, out_features=768, bias=True)
              (dropout): Dropout(p=0.1, inplace=False)
            )
            (output): RobertaSelfOutput(
              (dense): Linear(in_features=768, out_features=768, bias=True)
              (LayerNorm): LayerNorm((768,), eps=1e-05, elementwise_affine=True)
              (dropout): Dropout(p=0.1, inplace=False)
            )
          )
          (crossattention_t2i): RobertaAttention(
            (self): RobertaSelfAttention(
              (query): Linear(in_features=768, out_features=768, bias=True)
              (key): Linear(in_features=768, out_features=768, bias=True)
              (value): Linear(in_features=768, out_features=768, bias=True)
              (dropout): Dropout(p=0.1, inplace=False)
            )
            (output): RobertaSelfOutput(
              (dense): Linear(in_features=768, out_features=768, bias=True)
              (dropout): Dropout(p=0.1, inplace=False)
            )
          )
          (intermediate): RobertaIntermediate(
            (dense): Linear(in_features=768, out_features=3072, bias=True)
            (intermediate_act_fn): GELUActivation()
          )
          (output): RobertaOutput(
            (dense): Linear(in_features=3072, out_features=768, bias=True)
            (LayerNorm): LayerNorm((768,), eps=1e-05, elementwise_affine=True)
            (dropout): Dropout(p=0.1, inplace=False)
          )
        )
      )
    )
    (pooler): RobertaPooler(
      (activation): Tanh()
    )
  )
  (video_model): PeftModel(
    (base_model): LoraModel(
      (model): SpaceTimeTransformer(
        (patch_embed): VideoPatchEmbed(
          (proj): Conv2d(3, 768, kernel_size=(16, 16), stride=(16, 16))
        )
        (pos_drop): Dropout(p=0.0, inplace=False)
        (blocks): ModuleList(
          (0-5): 6 x SpaceTimeBlock(
            (norm1): LayerNorm((768,), eps=1e-05, elementwise_affine=True)
            (attn): VarAttention(
              (qkv): lora.Linear(
                (base_layer): Linear(in_features=768, out_features=2304, bias=True)
                (lora_dropout): ModuleDict(
                  (default): Identity()
                )
                (lora_A): ModuleDict(
                  (default): Linear(in_features=768, out_features=16, bias=False)
                )
                (lora_B): ModuleDict(
                  (default): Linear(in_features=16, out_features=2304, bias=False)
                )
                (lora_embedding_A): ParameterDict()
                (lora_embedding_B): ParameterDict()
              )
              (proj): lora.Linear(
                (base_layer): Linear(in_features=768, out_features=768, bias=True)
                (lora_dropout): ModuleDict(
                  (default): Identity()
                )
                (lora_A): ModuleDict(
                  (default): Linear(in_features=768, out_features=16, bias=False)
                )
                (lora_B): ModuleDict(
                  (default): Linear(in_features=16, out_features=768, bias=False)
                )
                (lora_embedding_A): ParameterDict()
                (lora_embedding_B): ParameterDict()
              )
              (attn_drop): Dropout(p=0.0, inplace=False)
              (proj_drop): Dropout(p=0.0, inplace=False)
              (softmax): Softmax(dim=-1)
            )
            (timeattn): VarAttention(
              (qkv): lora.Linear(
                (base_layer): Linear(in_features=768, out_features=2304, bias=True)
                (lora_dropout): ModuleDict(
                  (default): Identity()
                )
                (lora_A): ModuleDict(
                  (default): Linear(in_features=768, out_features=16, bias=False)
                )
                (lora_B): ModuleDict(
                  (default): Linear(in_features=16, out_features=2304, bias=False)
                )
                (lora_embedding_A): ParameterDict()
                (lora_embedding_B): ParameterDict()
              )
              (proj): lora.Linear(
                (base_layer): Linear(in_features=768, out_features=768, bias=True)
                (lora_dropout): ModuleDict(
                  (default): Identity()
                )
                (lora_A): ModuleDict(
                  (default): Linear(in_features=768, out_features=16, bias=False)
                )
                (lora_B): ModuleDict(
                  (default): Linear(in_features=16, out_features=768, bias=False)
                )
                (lora_embedding_A): ParameterDict()
                (lora_embedding_B): ParameterDict()
              )
              (attn_drop): Dropout(p=0.0, inplace=False)
              (proj_drop): Dropout(p=0.0, inplace=False)
              (softmax): Softmax(dim=-1)
            )
            (drop_path): Identity()
            (norm2): LayerNorm((768,), eps=1e-05, elementwise_affine=True)
            (mlp): Mlp(
              (fc1): lora.Linear(
                (base_layer): Linear(in_features=768, out_features=3072, bias=True)
                (lora_dropout): ModuleDict(
                  (default): Identity()
                )
                (lora_A): ModuleDict(
                  (default): Linear(in_features=768, out_features=16, bias=False)
                )
                (lora_B): ModuleDict(
                  (default): Linear(in_features=16, out_features=3072, bias=False)
                )
                (lora_embedding_A): ParameterDict()
                (lora_embedding_B): ParameterDict()
              )
              (act): GELU(approximate='none')
              (fc2): lora.Linear(
                (base_layer): Linear(in_features=3072, out_features=768, bias=True)
                (lora_dropout): ModuleDict(
                  (default): Identity()
                )
                (lora_A): ModuleDict(
                  (default): Linear(in_features=3072, out_features=16, bias=False)
                )
                (lora_B): ModuleDict(
                  (default): Linear(in_features=16, out_features=768, bias=False)
                )
                (lora_embedding_A): ParameterDict()
                (lora_embedding_B): ParameterDict()
              )
              (drop): Dropout(p=0.0, inplace=False)
            )
            (norm3): LayerNorm((768,), eps=1e-05, elementwise_affine=True)
          )
          (6-11): 6 x SpaceTimeBlock(
            (norm1): LayerNorm((768,), eps=1e-05, elementwise_affine=True)
            (attn): VarAttention(
              (qkv): lora.Linear(
                (base_layer): Linear(in_features=768, out_features=2304, bias=True)
                (lora_dropout): ModuleDict(
                  (default): Identity()
                )
                (lora_A): ModuleDict(
                  (default): Linear(in_features=768, out_features=16, bias=False)
                )
                (lora_B): ModuleDict(
                  (default): Linear(in_features=16, out_features=2304, bias=False)
                )
                (lora_embedding_A): ParameterDict()
                (lora_embedding_B): ParameterDict()
              )
              (proj): lora.Linear(
                (base_layer): Linear(in_features=768, out_features=768, bias=True)
                (lora_dropout): ModuleDict(
                  (default): Identity()
                )
                (lora_A): ModuleDict(
                  (default): Linear(in_features=768, out_features=16, bias=False)
                )
                (lora_B): ModuleDict(
                  (default): Linear(in_features=16, out_features=768, bias=False)
                )
                (lora_embedding_A): ParameterDict()
                (lora_embedding_B): ParameterDict()
              )
              (attn_drop): Dropout(p=0.0, inplace=False)
              (proj_drop): Dropout(p=0.0, inplace=False)
              (softmax): Softmax(dim=-1)
              (qkv_text_i2t): Linear(in_features=768, out_features=1536, bias=True)
              (qkv_i2t): Linear(in_features=768, out_features=768, bias=True)
              (attn_drop_i2t): Dropout(p=0.0, inplace=False)
              (proj_i2t): Linear(in_features=768, out_features=768, bias=True)
              (proj_drop_i2t): Dropout(p=0.0, inplace=False)
              (norm_i2t_i): LayerNorm((768,), eps=1e-05, elementwise_affine=True)
            )
            (timeattn): VarAttention(
              (qkv): lora.Linear(
                (base_layer): Linear(in_features=768, out_features=2304, bias=True)
                (lora_dropout): ModuleDict(
                  (default): Identity()
                )
                (lora_A): ModuleDict(
                  (default): Linear(in_features=768, out_features=16, bias=False)
                )
                (lora_B): ModuleDict(
                  (default): Linear(in_features=16, out_features=2304, bias=False)
                )
                (lora_embedding_A): ParameterDict()
                (lora_embedding_B): ParameterDict()
              )
              (proj): lora.Linear(
                (base_layer): Linear(in_features=768, out_features=768, bias=True)
                (lora_dropout): ModuleDict(
                  (default): Identity()
                )
                (lora_A): ModuleDict(
                  (default): Linear(in_features=768, out_features=16, bias=False)
                )
                (lora_B): ModuleDict(
                  (default): Linear(in_features=16, out_features=768, bias=False)
                )
                (lora_embedding_A): ParameterDict()
                (lora_embedding_B): ParameterDict()
              )
              (attn_drop): Dropout(p=0.0, inplace=False)
              (proj_drop): Dropout(p=0.0, inplace=False)
              (softmax): Softmax(dim=-1)
            )
            (drop_path): Identity()
            (norm2): LayerNorm((768,), eps=1e-05, elementwise_affine=True)
            (mlp): Mlp(
              (fc1): lora.Linear(
                (base_layer): Linear(in_features=768, out_features=3072, bias=True)
                (lora_dropout): ModuleDict(
                  (default): Identity()
                )
                (lora_A): ModuleDict(
                  (default): Linear(in_features=768, out_features=16, bias=False)
                )
                (lora_B): ModuleDict(
                  (default): Linear(in_features=16, out_features=3072, bias=False)
                )
                (lora_embedding_A): ParameterDict()
                (lora_embedding_B): ParameterDict()
              )
              (act): GELU(approximate='none')
              (fc2): lora.Linear(
                (base_layer): Linear(in_features=3072, out_features=768, bias=True)
                (lora_dropout): ModuleDict(
                  (default): Identity()
                )
                (lora_A): ModuleDict(
                  (default): Linear(in_features=3072, out_features=16, bias=False)
                )
                (lora_B): ModuleDict(
                  (default): Linear(in_features=16, out_features=768, bias=False)
                )
                (lora_embedding_A): ParameterDict()
                (lora_embedding_B): ParameterDict()
              )
              (drop): Dropout(p=0.0, inplace=False)
            )
            (norm3): LayerNorm((768,), eps=1e-05, elementwise_affine=True)
          )
        )
        (norm): LayerNorm((768,), eps=1e-05, elementwise_affine=True)
        (pre_logits): Identity()
        (head): Identity()
        (fc): Identity()
      )
    )
  )
  (txt_proj): Sequential(
    (0): Linear(in_features=768, out_features=4096, bias=False)
    (1): ReLU(inplace=True)
    (2): Linear(in_features=4096, out_features=4096, bias=True)
    (3): ReLU(inplace=True)
    (4): Linear(in_features=4096, out_features=4096, bias=True)
  )
  (vid_proj): Sequential(
    (0): Linear(in_features=768, out_features=4096, bias=False)
    (1): ReLU(inplace=True)
    (2): Linear(in_features=4096, out_features=4096, bias=True)
    (3): ReLU(inplace=True)
    (4): Linear(in_features=4096, out_features=4096, bias=True)
  )
  (cross_modal_text_transform): Linear(in_features=768, out_features=768, bias=True)
  (cross_modal_video_transform): Linear(in_features=768, out_features=768, bias=True)
  (norm): LayerNorm((768,), eps=1e-06, elementwise_affine=True)
  (pre_logits): Identity()
  (avgpool): AdaptiveAvgPool1d(output_size=1)
  (cross_modal_video_pooler): Pooler(
    (dense): Linear(in_features=768, out_features=768, bias=True)
    (activation): Tanh()
  )
  (cross_modal_text_pooler): Pooler(
    (dense): Linear(in_features=768, out_features=768, bias=True)
    (activation): Tanh()
  )
  (mlm_score): MLMHead(
    (transform): BertPredictionHeadTransform(
      (dense): Linear(in_features=768, out_features=768, bias=True)
      (transform_act_fn): GELUActivation()
      (LayerNorm): LayerNorm((768,), eps=1e-12, elementwise_affine=True)
    )
    (decoder): Linear(in_features=768, out_features=50265, bias=False)
  )
  (itm_score): ITMHead(
    (fc): Linear(in_features=1536, out_features=2, bias=True)
  )
)
Trainable parameters: 44924507
2024-05-02 17:39:01,387 - trainer - INFO - Train Epoch: 1 dl0 [0/321526 (0%)] Loss: 1.385252; lr: 1.4000000000000001e-06; Time/iteration: 0.669m; Time so far/epoch: 0.011h
2024-05-02 17:39:14,385 - trainer - INFO - Train Epoch: 1 dl0 [576/321526 (0%)] Loss: 1.348772; lr: 1.02e-05; Time/iteration: 0.217m; Time so far/epoch: 0.015h
…
