2024-05-01 16:27:16,352 - train - INFO - EgoVLP_lora(
  (text_model): DistilBertModel(
    (embeddings): Embeddings(
      (word_embeddings): Embedding(30522, 768, padding_idx=0)
      (position_embeddings): Embedding(512, 768)
      (LayerNorm): LayerNorm((768,), eps=1e-12, elementwise_affine=True)
      (dropout): Dropout(p=0.1, inplace=False)
    )
    (transformer): Transformer(
      (layer): ModuleList(
        (0-5): 6 x TransformerBlock(
          (attention): MultiHeadSelfAttention(
            (dropout): Dropout(p=0.1, inplace=False)
            (q_lin): Linear(in_features=768, out_features=768, bias=True)
            (k_lin): Linear(in_features=768, out_features=768, bias=True)
            (v_lin): Linear(in_features=768, out_features=768, bias=True)
            (out_lin): Linear(in_features=768, out_features=768, bias=True)
          )
          (sa_layer_norm): LayerNorm((768,), eps=1e-12, elementwise_affine=True)
          (ffn): FFN(
            (dropout): Dropout(p=0.1, inplace=False)
            (lin1): Linear(in_features=768, out_features=3072, bias=True)
            (lin2): Linear(in_features=3072, out_features=768, bias=True)
            (activation): GELUActivation()
          )
          (output_layer_norm): LayerNorm((768,), eps=1e-12, elementwise_affine=True)
        )
      )
    )
  )
  (video_model): PeftModel(
    (base_model): LoraModel(
      (model): SpaceTimeTransformer(
        (patch_embed): VideoPatchEmbed(
          (proj): Conv2d(3, 768, kernel_size=(16, 16), stride=(16, 16))
        )
        (pos_drop): Dropout(p=0.0, inplace=False)
        (blocks): ModuleList(
          (0-11): 12 x SpaceTimeBlock(
            (norm1): LayerNorm((768,), eps=1e-06, elementwise_affine=True)
            (attn): VarAttention(
              (qkv): lora.Linear(
                (base_layer): Linear(in_features=768, out_features=2304, bias=True)
                (lora_dropout): ModuleDict(
                  (default): Identity()
                )
                (lora_A): ModuleDict(
                  (default): Linear(in_features=768, out_features=16, bias=False)
                )
                (lora_B): ModuleDict(
                  (default): Linear(in_features=16, out_features=2304, bias=False)
                )
                (lora_embedding_A): ParameterDict()
                (lora_embedding_B): ParameterDict()
              )
              (proj): lora.Linear(
                (base_layer): Linear(in_features=768, out_features=768, bias=True)
                (lora_dropout): ModuleDict(
                  (default): Identity()
                )
                (lora_A): ModuleDict(
                  (default): Linear(in_features=768, out_features=16, bias=False)
                )
                (lora_B): ModuleDict(
                  (default): Linear(in_features=16, out_features=768, bias=False)
                )
                (lora_embedding_A): ParameterDict()
                (lora_embedding_B): ParameterDict()
              )
              (attn_drop): Dropout(p=0.0, inplace=False)
              (proj_drop): Dropout(p=0.0, inplace=False)
            )
            (timeattn): VarAttention(
              (qkv): lora.Linear(
                (base_layer): Linear(in_features=768, out_features=2304, bias=True)
                (lora_dropout): ModuleDict(
                  (default): Identity()
                )
                (lora_A): ModuleDict(
                  (default): Linear(in_features=768, out_features=16, bias=False)
                )
                (lora_B): ModuleDict(
                  (default): Linear(in_features=16, out_features=2304, bias=False)
                )
                (lora_embedding_A): ParameterDict()
                (lora_embedding_B): ParameterDict()
              )
              (proj): lora.Linear(
                (base_layer): Linear(in_features=768, out_features=768, bias=True)
                (lora_dropout): ModuleDict(
                  (default): Identity()
                )
                (lora_A): ModuleDict(
                  (default): Linear(in_features=768, out_features=16, bias=False)
                )
                (lora_B): ModuleDict(
                  (default): Linear(in_features=16, out_features=768, bias=False)
                )
                (lora_embedding_A): ParameterDict()
                (lora_embedding_B): ParameterDict()
              )
              (attn_drop): Dropout(p=0.0, inplace=False)
              (proj_drop): Dropout(p=0.0, inplace=False)
            )
            (drop_path): Identity()
            (norm2): LayerNorm((768,), eps=1e-06, elementwise_affine=True)
            (mlp): Mlp(
              (fc1): lora.Linear(
                (base_layer): Linear(in_features=768, out_features=3072, bias=True)
                (lora_dropout): ModuleDict(
                  (default): Identity()
                )
                (lora_A): ModuleDict(
                  (default): Linear(in_features=768, out_features=16, bias=False)
                )
                (lora_B): ModuleDict(
                  (default): Linear(in_features=16, out_features=3072, bias=False)
                )
                (lora_embedding_A): ParameterDict()
                (lora_embedding_B): ParameterDict()
              )
              (act): GELU(approximate='none')
              (fc2): lora.Linear(
                (base_layer): Linear(in_features=3072, out_features=768, bias=True)
                (lora_dropout): ModuleDict(
                  (default): Identity()
                )
                (lora_A): ModuleDict(
                  (default): Linear(in_features=3072, out_features=16, bias=False)
                )
                (lora_B): ModuleDict(
                  (default): Linear(in_features=16, out_features=768, bias=False)
                )
                (lora_embedding_A): ParameterDict()
                (lora_embedding_B): ParameterDict()
              )
              (drop): Dropout(p=0.0, inplace=False)
            )
            (norm3): LayerNorm((768,), eps=1e-06, elementwise_affine=True)
          )
        )
        (norm): LayerNorm((768,), eps=1e-06, elementwise_affine=True)
        (pre_logits): Identity()
        (head): Identity()
        (fc): Identity()
      )
    )
  )
  (txt_proj): Sequential(
    (0): ReLU()
    (1): Linear(in_features=768, out_features=256, bias=True)
  )
  (vid_proj): Sequential(
    (0): Linear(in_features=768, out_features=256, bias=True)
  )
)
Trainable parameters: 3301632
2024-05-01 16:28:10,625 - train - INFO - EgoVLP_lora(
  (text_model): DistilBertModel(
    (embeddings): Embeddings(
      (word_embeddings): Embedding(30522, 768, padding_idx=0)
      (position_embeddings): Embedding(512, 768)
      (LayerNorm): LayerNorm((768,), eps=1e-12, elementwise_affine=True)
      (dropout): Dropout(p=0.1, inplace=False)
    )
    (transformer): Transformer(
      (layer): ModuleList(
        (0-5): 6 x TransformerBlock(
          (attention): MultiHeadSelfAttention(
            (dropout): Dropout(p=0.1, inplace=False)
            (q_lin): Linear(in_features=768, out_features=768, bias=True)
            (k_lin): Linear(in_features=768, out_features=768, bias=True)
            (v_lin): Linear(in_features=768, out_features=768, bias=True)
            (out_lin): Linear(in_features=768, out_features=768, bias=True)
          )
          (sa_layer_norm): LayerNorm((768,), eps=1e-12, elementwise_affine=True)
          (ffn): FFN(
            (dropout): Dropout(p=0.1, inplace=False)
            (lin1): Linear(in_features=768, out_features=3072, bias=True)
            (lin2): Linear(in_features=3072, out_features=768, bias=True)
            (activation): GELUActivation()
          )
          (output_layer_norm): LayerNorm((768,), eps=1e-12, elementwise_affine=True)
        )
      )
    )
  )
  (video_model): PeftModel(
    (base_model): LoraModel(
      (model): SpaceTimeTransformer(
        (patch_embed): VideoPatchEmbed(
          (proj): Conv2d(3, 768, kernel_size=(16, 16), stride=(16, 16))
        )
        (pos_drop): Dropout(p=0.0, inplace=False)
        (blocks): ModuleList(
          (0-11): 12 x SpaceTimeBlock(
            (norm1): LayerNorm((768,), eps=1e-06, elementwise_affine=True)
            (attn): VarAttention(
              (qkv): lora.Linear(
                (base_layer): Linear(in_features=768, out_features=2304, bias=True)
                (lora_dropout): ModuleDict(
                  (default): Identity()
                )
                (lora_A): ModuleDict(
                  (default): Linear(in_features=768, out_features=16, bias=False)
                )
                (lora_B): ModuleDict(
                  (default): Linear(in_features=16, out_features=2304, bias=False)
                )
                (lora_embedding_A): ParameterDict()
                (lora_embedding_B): ParameterDict()
              )
              (proj): lora.Linear(
                (base_layer): Linear(in_features=768, out_features=768, bias=True)
                (lora_dropout): ModuleDict(
                  (default): Identity()
                )
                (lora_A): ModuleDict(
                  (default): Linear(in_features=768, out_features=16, bias=False)
                )
                (lora_B): ModuleDict(
                  (default): Linear(in_features=16, out_features=768, bias=False)
                )
                (lora_embedding_A): ParameterDict()
                (lora_embedding_B): ParameterDict()
              )
              (attn_drop): Dropout(p=0.0, inplace=False)
              (proj_drop): Dropout(p=0.0, inplace=False)
            )
            (timeattn): VarAttention(
              (qkv): lora.Linear(
                (base_layer): Linear(in_features=768, out_features=2304, bias=True)
                (lora_dropout): ModuleDict(
                  (default): Identity()
                )
                (lora_A): ModuleDict(
                  (default): Linear(in_features=768, out_features=16, bias=False)
                )
                (lora_B): ModuleDict(
                  (default): Linear(in_features=16, out_features=2304, bias=False)
                )
                (lora_embedding_A): ParameterDict()
                (lora_embedding_B): ParameterDict()
              )
              (proj): lora.Linear(
                (base_layer): Linear(in_features=768, out_features=768, bias=True)
                (lora_dropout): ModuleDict(
                  (default): Identity()
                )
                (lora_A): ModuleDict(
                  (default): Linear(in_features=768, out_features=16, bias=False)
                )
                (lora_B): ModuleDict(
                  (default): Linear(in_features=16, out_features=768, bias=False)
                )
                (lora_embedding_A): ParameterDict()
                (lora_embedding_B): ParameterDict()
              )
              (attn_drop): Dropout(p=0.0, inplace=False)
              (proj_drop): Dropout(p=0.0, inplace=False)
            )
            (drop_path): Identity()
            (norm2): LayerNorm((768,), eps=1e-06, elementwise_affine=True)
            (mlp): Mlp(
              (fc1): lora.Linear(
                (base_layer): Linear(in_features=768, out_features=3072, bias=True)
                (lora_dropout): ModuleDict(
                  (default): Identity()
                )
                (lora_A): ModuleDict(
                  (default): Linear(in_features=768, out_features=16, bias=False)
                )
                (lora_B): ModuleDict(
                  (default): Linear(in_features=16, out_features=3072, bias=False)
                )
                (lora_embedding_A): ParameterDict()
                (lora_embedding_B): ParameterDict()
              )
              (act): GELU(approximate='none')
              (fc2): lora.Linear(
                (base_layer): Linear(in_features=3072, out_features=768, bias=True)
                (lora_dropout): ModuleDict(
                  (default): Identity()
                )
                (lora_A): ModuleDict(
                  (default): Linear(in_features=3072, out_features=16, bias=False)
                )
                (lora_B): ModuleDict(
                  (default): Linear(in_features=16, out_features=768, bias=False)
                )
                (lora_embedding_A): ParameterDict()
                (lora_embedding_B): ParameterDict()
              )
              (drop): Dropout(p=0.0, inplace=False)
            )
            (norm3): LayerNorm((768,), eps=1e-06, elementwise_affine=True)
          )
        )
        (norm): LayerNorm((768,), eps=1e-06, elementwise_affine=True)
        (pre_logits): Identity()
        (head): Identity()
        (fc): Identity()
      )
    )
  )
  (txt_proj): Sequential(
    (0): ReLU()
    (1): Linear(in_features=768, out_features=256, bias=True)
  )
  (vid_proj): Sequential(
    (0): Linear(in_features=768, out_features=256, bias=True)
  )
)
Trainable parameters: 3301632
2024-05-01 16:28:24,148 - tensorboardX.x2num - WARNING - NaN or Inf found in input tensor.
2024-05-01 16:28:24,153 - trainer - INFO - Train Epoch: 1 dl0 [0/2572210 (0%)] Loss: nan; lr: 1.4000000000000001e-06; Time/iteration: 0.219m; Time so far/epoch: 0.004h
2024-05-01 16:28:26,758 - tensorboardX.x2num - WARNING - NaN or Inf found in input tensor.
2024-05-01 16:28:29,378 - tensorboardX.x2num - WARNING - NaN or Inf found in input tensor.
2024-05-01 16:28:31,982 - tensorboardX.x2num - WARNING - NaN or Inf found in input tensor.
2024-05-01 16:30:45,146 - train - INFO - EgoVLP_lora(
  (text_model): DistilBertModel(
    (embeddings): Embeddings(
      (word_embeddings): Embedding(30522, 768, padding_idx=0)
      (position_embeddings): Embedding(512, 768)
      (LayerNorm): LayerNorm((768,), eps=1e-12, elementwise_affine=True)
      (dropout): Dropout(p=0.1, inplace=False)
    )
    (transformer): Transformer(
      (layer): ModuleList(
        (0-5): 6 x TransformerBlock(
          (attention): MultiHeadSelfAttention(
            (dropout): Dropout(p=0.1, inplace=False)
            (q_lin): Linear(in_features=768, out_features=768, bias=True)
            (k_lin): Linear(in_features=768, out_features=768, bias=True)
            (v_lin): Linear(in_features=768, out_features=768, bias=True)
            (out_lin): Linear(in_features=768, out_features=768, bias=True)
          )
          (sa_layer_norm): LayerNorm((768,), eps=1e-12, elementwise_affine=True)
          (ffn): FFN(
            (dropout): Dropout(p=0.1, inplace=False)
            (lin1): Linear(in_features=768, out_features=3072, bias=True)
            (lin2): Linear(in_features=3072, out_features=768, bias=True)
            (activation): GELUActivation()
          )
          (output_layer_norm): LayerNorm((768,), eps=1e-12, elementwise_affine=True)
        )
      )
    )
  )
  (video_model): PeftModel(
    (base_model): LoraModel(
      (model): SpaceTimeTransformer(
        (patch_embed): VideoPatchEmbed(
          (proj): Conv2d(3, 768, kernel_size=(16, 16), stride=(16, 16))
        )
        (pos_drop): Dropout(p=0.0, inplace=False)
        (blocks): ModuleList(
          (0-11): 12 x SpaceTimeBlock(
            (norm1): LayerNorm((768,), eps=1e-06, elementwise_affine=True)
            (attn): VarAttention(
              (qkv): lora.Linear(
                (base_layer): Linear(in_features=768, out_features=2304, bias=True)
                (lora_dropout): ModuleDict(
                  (default): Identity()
                )
                (lora_A): ModuleDict(
                  (default): Linear(in_features=768, out_features=16, bias=False)
                )
                (lora_B): ModuleDict(
                  (default): Linear(in_features=16, out_features=2304, bias=False)
                )
                (lora_embedding_A): ParameterDict()
                (lora_embedding_B): ParameterDict()
              )
              (proj): lora.Linear(
                (base_layer): Linear(in_features=768, out_features=768, bias=True)
                (lora_dropout): ModuleDict(
                  (default): Identity()
                )
                (lora_A): ModuleDict(
                  (default): Linear(in_features=768, out_features=16, bias=False)
                )
                (lora_B): ModuleDict(
                  (default): Linear(in_features=16, out_features=768, bias=False)
                )
                (lora_embedding_A): ParameterDict()
                (lora_embedding_B): ParameterDict()
              )
              (attn_drop): Dropout(p=0.0, inplace=False)
              (proj_drop): Dropout(p=0.0, inplace=False)
            )
            (timeattn): VarAttention(
              (qkv): lora.Linear(
                (base_layer): Linear(in_features=768, out_features=2304, bias=True)
                (lora_dropout): ModuleDict(
                  (default): Identity()
                )
                (lora_A): ModuleDict(
                  (default): Linear(in_features=768, out_features=16, bias=False)
                )
                (lora_B): ModuleDict(
                  (default): Linear(in_features=16, out_features=2304, bias=False)
                )
                (lora_embedding_A): ParameterDict()
                (lora_embedding_B): ParameterDict()
              )
              (proj): lora.Linear(
                (base_layer): Linear(in_features=768, out_features=768, bias=True)
                (lora_dropout): ModuleDict(
                  (default): Identity()
                )
                (lora_A): ModuleDict(
                  (default): Linear(in_features=768, out_features=16, bias=False)
                )
                (lora_B): ModuleDict(
                  (default): Linear(in_features=16, out_features=768, bias=False)
                )
                (lora_embedding_A): ParameterDict()
                (lora_embedding_B): ParameterDict()
              )
              (attn_drop): Dropout(p=0.0, inplace=False)
              (proj_drop): Dropout(p=0.0, inplace=False)
            )
            (drop_path): Identity()
            (norm2): LayerNorm((768,), eps=1e-06, elementwise_affine=True)
            (mlp): Mlp(
              (fc1): lora.Linear(
                (base_layer): Linear(in_features=768, out_features=3072, bias=True)
                (lora_dropout): ModuleDict(
                  (default): Identity()
                )
                (lora_A): ModuleDict(
                  (default): Linear(in_features=768, out_features=16, bias=False)
                )
                (lora_B): ModuleDict(
                  (default): Linear(in_features=16, out_features=3072, bias=False)
                )
                (lora_embedding_A): ParameterDict()
                (lora_embedding_B): ParameterDict()
              )
              (act): GELU(approximate='none')
              (fc2): lora.Linear(
                (base_layer): Linear(in_features=3072, out_features=768, bias=True)
                (lora_dropout): ModuleDict(
                  (default): Identity()
                )
                (lora_A): ModuleDict(
                  (default): Linear(in_features=3072, out_features=16, bias=False)
                )
                (lora_B): ModuleDict(
                  (default): Linear(in_features=16, out_features=768, bias=False)
                )
                (lora_embedding_A): ParameterDict()
                (lora_embedding_B): ParameterDict()
              )
              (drop): Dropout(p=0.0, inplace=False)
            )
            (norm3): LayerNorm((768,), eps=1e-06, elementwise_affine=True)
          )
        )
        (norm): LayerNorm((768,), eps=1e-06, elementwise_affine=True)
        (pre_logits): Identity()
        (head): Identity()
        (fc): Identity()
      )
    )
  )
  (txt_proj): Sequential(
    (0): ReLU()
    (1): Linear(in_features=768, out_features=256, bias=True)
  )
  (vid_proj): Sequential(
    (0): Linear(in_features=768, out_features=256, bias=True)
  )
)
Trainable parameters: 3301632
2024-05-01 16:30:57,340 - tensorboardX.x2num - WARNING - NaN or Inf found in input tensor.
2024-05-01 16:30:57,344 - trainer - INFO - Train Epoch: 1 dl0 [0/2572210 (0%)] Loss: nan; lr: 1.4000000000000001e-06; Time/iteration: 0.197m; Time so far/epoch: 0.003h
2024-05-01 16:30:59,951 - tensorboardX.x2num - WARNING - NaN or Inf found in input tensor.
2024-05-01 16:31:02,592 - tensorboardX.x2num - WARNING - NaN or Inf found in input tensor.
2024-05-01 16:32:14,202 - train - INFO - EgoVLP_lora(
  (text_model): DistilBertModel(
    (embeddings): Embeddings(
      (word_embeddings): Embedding(30522, 768, padding_idx=0)
      (position_embeddings): Embedding(512, 768)
      (LayerNorm): LayerNorm((768,), eps=1e-12, elementwise_affine=True)
      (dropout): Dropout(p=0.1, inplace=False)
    )
    (transformer): Transformer(
      (layer): ModuleList(
        (0-5): 6 x TransformerBlock(
          (attention): MultiHeadSelfAttention(
            (dropout): Dropout(p=0.1, inplace=False)
            (q_lin): Linear(in_features=768, out_features=768, bias=True)
            (k_lin): Linear(in_features=768, out_features=768, bias=True)
            (v_lin): Linear(in_features=768, out_features=768, bias=True)
            (out_lin): Linear(in_features=768, out_features=768, bias=True)
          )
          (sa_layer_norm): LayerNorm((768,), eps=1e-12, elementwise_affine=True)
          (ffn): FFN(
            (dropout): Dropout(p=0.1, inplace=False)
            (lin1): Linear(in_features=768, out_features=3072, bias=True)
            (lin2): Linear(in_features=3072, out_features=768, bias=True)
            (activation): GELUActivation()
          )
          (output_layer_norm): LayerNorm((768,), eps=1e-12, elementwise_affine=True)
        )
      )
    )
  )
  (video_model): PeftModel(
    (base_model): LoraModel(
      (model): SpaceTimeTransformer(
        (patch_embed): VideoPatchEmbed(
          (proj): Conv2d(3, 768, kernel_size=(16, 16), stride=(16, 16))
        )
        (pos_drop): Dropout(p=0.0, inplace=False)
        (blocks): ModuleList(
          (0-11): 12 x SpaceTimeBlock(
            (norm1): LayerNorm((768,), eps=1e-06, elementwise_affine=True)
            (attn): VarAttention(
              (qkv): lora.Linear(
                (base_layer): Linear(in_features=768, out_features=2304, bias=True)
                (lora_dropout): ModuleDict(
                  (default): Identity()
                )
                (lora_A): ModuleDict(
                  (default): Linear(in_features=768, out_features=16, bias=False)
                )
                (lora_B): ModuleDict(
                  (default): Linear(in_features=16, out_features=2304, bias=False)
                )
                (lora_embedding_A): ParameterDict()
                (lora_embedding_B): ParameterDict()
              )
              (proj): lora.Linear(
                (base_layer): Linear(in_features=768, out_features=768, bias=True)
                (lora_dropout): ModuleDict(
                  (default): Identity()
                )
                (lora_A): ModuleDict(
                  (default): Linear(in_features=768, out_features=16, bias=False)
                )
                (lora_B): ModuleDict(
                  (default): Linear(in_features=16, out_features=768, bias=False)
                )
                (lora_embedding_A): ParameterDict()
                (lora_embedding_B): ParameterDict()
              )
              (attn_drop): Dropout(p=0.0, inplace=False)
              (proj_drop): Dropout(p=0.0, inplace=False)
            )
            (timeattn): VarAttention(
              (qkv): lora.Linear(
                (base_layer): Linear(in_features=768, out_features=2304, bias=True)
                (lora_dropout): ModuleDict(
                  (default): Identity()
                )
                (lora_A): ModuleDict(
                  (default): Linear(in_features=768, out_features=16, bias=False)
                )
                (lora_B): ModuleDict(
                  (default): Linear(in_features=16, out_features=2304, bias=False)
                )
                (lora_embedding_A): ParameterDict()
                (lora_embedding_B): ParameterDict()
              )
              (proj): lora.Linear(
                (base_layer): Linear(in_features=768, out_features=768, bias=True)
                (lora_dropout): ModuleDict(
                  (default): Identity()
                )
                (lora_A): ModuleDict(
                  (default): Linear(in_features=768, out_features=16, bias=False)
                )
                (lora_B): ModuleDict(
                  (default): Linear(in_features=16, out_features=768, bias=False)
                )
                (lora_embedding_A): ParameterDict()
                (lora_embedding_B): ParameterDict()
              )
              (attn_drop): Dropout(p=0.0, inplace=False)
              (proj_drop): Dropout(p=0.0, inplace=False)
            )
            (drop_path): Identity()
            (norm2): LayerNorm((768,), eps=1e-06, elementwise_affine=True)
            (mlp): Mlp(
              (fc1): lora.Linear(
                (base_layer): Linear(in_features=768, out_features=3072, bias=True)
                (lora_dropout): ModuleDict(
                  (default): Identity()
                )
                (lora_A): ModuleDict(
                  (default): Linear(in_features=768, out_features=16, bias=False)
                )
                (lora_B): ModuleDict(
                  (default): Linear(in_features=16, out_features=3072, bias=False)
                )
                (lora_embedding_A): ParameterDict()
                (lora_embedding_B): ParameterDict()
              )
              (act): GELU(approximate='none')
              (fc2): lora.Linear(
                (base_layer): Linear(in_features=3072, out_features=768, bias=True)
                (lora_dropout): ModuleDict(
                  (default): Identity()
                )
                (lora_A): ModuleDict(
                  (default): Linear(in_features=3072, out_features=16, bias=False)
                )
                (lora_B): ModuleDict(
                  (default): Linear(in_features=16, out_features=768, bias=False)
                )
                (lora_embedding_A): ParameterDict()
                (lora_embedding_B): ParameterDict()
              )
              (drop): Dropout(p=0.0, inplace=False)
            )
            (norm3): LayerNorm((768,), eps=1e-06, elementwise_affine=True)
          )
        )
        (norm): LayerNorm((768,), eps=1e-06, elementwise_affine=True)
        (pre_logits): Identity()
        (head): Identity()
        (fc): Identity()
      )
    )
  )
  (txt_proj): Sequential(
    (0): ReLU()
    (1): Linear(in_features=768, out_features=256, bias=True)
  )
  (vid_proj): Sequential(
    (0): Linear(in_features=768, out_features=256, bias=True)
  )
)
Trainable parameters: 3301632
2024-05-01 16:32:27,359 - trainer - INFO - Train Epoch: 1 dl0 [0/2572210 (0%)] Loss: 1.634843; lr: 1.4000000000000001e-06; Time/iteration: 0.213m; Time so far/epoch: 0.004h
2024-05-01 16:32:48,305 - trainer - INFO - Train Epoch: 1 dl0 [576/2572210 (0%)] Loss: 1.804532; lr: 1.02e-05; Time/iteration: 0.349m; Time so far/epoch: 0.009h
2024-05-01 16:33:36,794 - train - INFO - EgoVLP_lora(
  (text_model): DistilBertModel(
    (embeddings): Embeddings(
      (word_embeddings): Embedding(30522, 768, padding_idx=0)
      (position_embeddings): Embedding(512, 768)
      (LayerNorm): LayerNorm((768,), eps=1e-12, elementwise_affine=True)
      (dropout): Dropout(p=0.1, inplace=False)
    )
    (transformer): Transformer(
      (layer): ModuleList(
        (0-5): 6 x TransformerBlock(
          (attention): MultiHeadSelfAttention(
            (dropout): Dropout(p=0.1, inplace=False)
            (q_lin): Linear(in_features=768, out_features=768, bias=True)
            (k_lin): Linear(in_features=768, out_features=768, bias=True)
            (v_lin): Linear(in_features=768, out_features=768, bias=True)
            (out_lin): Linear(in_features=768, out_features=768, bias=True)
          )
          (sa_layer_norm): LayerNorm((768,), eps=1e-12, elementwise_affine=True)
          (ffn): FFN(
            (dropout): Dropout(p=0.1, inplace=False)
            (lin1): Linear(in_features=768, out_features=3072, bias=True)
            (lin2): Linear(in_features=3072, out_features=768, bias=True)
            (activation): GELUActivation()
          )
          (output_layer_norm): LayerNorm((768,), eps=1e-12, elementwise_affine=True)
        )
      )
    )
  )
  (video_model): PeftModel(
    (base_model): LoraModel(
      (model): SpaceTimeTransformer(
        (patch_embed): VideoPatchEmbed(
          (proj): Conv2d(3, 768, kernel_size=(16, 16), stride=(16, 16))
        )
        (pos_drop): Dropout(p=0.0, inplace=False)
        (blocks): ModuleList(
          (0-11): 12 x SpaceTimeBlock(
            (norm1): LayerNorm((768,), eps=1e-06, elementwise_affine=True)
            (attn): VarAttention(
              (qkv): lora.Linear(
                (base_layer): Linear(in_features=768, out_features=2304, bias=True)
                (lora_dropout): ModuleDict(
                  (default): Identity()
                )
                (lora_A): ModuleDict(
                  (default): Linear(in_features=768, out_features=16, bias=False)
                )
                (lora_B): ModuleDict(
                  (default): Linear(in_features=16, out_features=2304, bias=False)
                )
                (lora_embedding_A): ParameterDict()
                (lora_embedding_B): ParameterDict()
              )
              (proj): lora.Linear(
                (base_layer): Linear(in_features=768, out_features=768, bias=True)
                (lora_dropout): ModuleDict(
                  (default): Identity()
                )
                (lora_A): ModuleDict(
                  (default): Linear(in_features=768, out_features=16, bias=False)
                )
                (lora_B): ModuleDict(
                  (default): Linear(in_features=16, out_features=768, bias=False)
                )
                (lora_embedding_A): ParameterDict()
                (lora_embedding_B): ParameterDict()
              )
              (attn_drop): Dropout(p=0.0, inplace=False)
              (proj_drop): Dropout(p=0.0, inplace=False)
            )
            (timeattn): VarAttention(
              (qkv): lora.Linear(
                (base_layer): Linear(in_features=768, out_features=2304, bias=True)
                (lora_dropout): ModuleDict(
                  (default): Identity()
                )
                (lora_A): ModuleDict(
                  (default): Linear(in_features=768, out_features=16, bias=False)
                )
                (lora_B): ModuleDict(
                  (default): Linear(in_features=16, out_features=2304, bias=False)
                )
                (lora_embedding_A): ParameterDict()
                (lora_embedding_B): ParameterDict()
              )
              (proj): lora.Linear(
                (base_layer): Linear(in_features=768, out_features=768, bias=True)
                (lora_dropout): ModuleDict(
                  (default): Identity()
                )
                (lora_A): ModuleDict(
                  (default): Linear(in_features=768, out_features=16, bias=False)
                )
                (lora_B): ModuleDict(
                  (default): Linear(in_features=16, out_features=768, bias=False)
                )
                (lora_embedding_A): ParameterDict()
                (lora_embedding_B): ParameterDict()
              )
              (attn_drop): Dropout(p=0.0, inplace=False)
              (proj_drop): Dropout(p=0.0, inplace=False)
            )
            (drop_path): Identity()
            (norm2): LayerNorm((768,), eps=1e-06, elementwise_affine=True)
            (mlp): Mlp(
              (fc1): lora.Linear(
                (base_layer): Linear(in_features=768, out_features=3072, bias=True)
                (lora_dropout): ModuleDict(
                  (default): Identity()
                )
                (lora_A): ModuleDict(
                  (default): Linear(in_features=768, out_features=16, bias=False)
                )
                (lora_B): ModuleDict(
                  (default): Linear(in_features=16, out_features=3072, bias=False)
                )
                (lora_embedding_A): ParameterDict()
                (lora_embedding_B): ParameterDict()
              )
              (act): GELU(approximate='none')
              (fc2): lora.Linear(
                (base_layer): Linear(in_features=3072, out_features=768, bias=True)
                (lora_dropout): ModuleDict(
                  (default): Identity()
                )
                (lora_A): ModuleDict(
                  (default): Linear(in_features=3072, out_features=16, bias=False)
                )
                (lora_B): ModuleDict(
                  (default): Linear(in_features=16, out_features=768, bias=False)
                )
                (lora_embedding_A): ParameterDict()
                (lora_embedding_B): ParameterDict()
              )
              (drop): Dropout(p=0.0, inplace=False)
            )
            (norm3): LayerNorm((768,), eps=1e-06, elementwise_affine=True)
          )
        )
        (norm): LayerNorm((768,), eps=1e-06, elementwise_affine=True)
        (pre_logits): Identity()
        (head): Identity()
        (fc): Identity()
      )
    )
  )
  (txt_proj): Sequential(
    (0): ReLU()
    (1): Linear(in_features=768, out_features=256, bias=True)
  )
  (vid_proj): Sequential(
    (0): Linear(in_features=768, out_features=256, bias=True)
  )
)
Trainable parameters: 3301632
2024-05-01 16:34:20,057 - trainer - INFO - Train Epoch: 1 dl0 [0/321526 (0%)] Loss: 2.247008; lr: 1.4000000000000001e-06; Time/iteration: 0.674m; Time so far/epoch: 0.011h
2024-05-01 16:34:51,064 - trainer - INFO - Train Epoch: 1 dl0 [576/321526 (0%)] Loss: 2.204649; lr: 1.02e-05; Time/iteration: 0.517m; Time so far/epoch: 0.020h
…
